…
ae/main.py
Namespace(model='sagan', adv_loss='hinge', imsize=64, g_num=5, z_dim=128, g_conv_dim=64, d_conv_dim=64, lambda_gp=10, version='sagan_11_celeba', total_step=25600, d_iters=5, batch_size=64, num_workers=2, g_lr=0.0001, d_lr=0.0004, lr_decay=0.95, beta1=0.0, beta2=0.9, pretrained_model=None, train=True, parallel=False, dataset='celeb', use_tensorboard=False, image_path='./data', log_path='./logs', model_save_path='./models', sample_path='./samples', attn_path='./attn', log_step=10, sample_step=400, model_save_step=1.0)
Generator(
  (l4): Sequential(
    (0): SpectralNorm(
      (module): ConvTranspose2d(128, 64, kernel_size=(4, 4), stride=(2, 2), padding=(1, 1))
    )
    (1): BatchNorm2d(64, eps=1e-05, momentum=0.1, affine=True, track_running_stats=True)
    (2): ReLU()
  )
  (l1): Sequential(
    (0): SpectralNorm(
      (module): ConvTranspose2d(128, 512, kernel_size=(4, 4), stride=(1, 1))
    )
    (1): BatchNorm2d(512, eps=1e-05, momentum=0.1, affine=True, track_running_stats=True)
    (2): ReLU()
  )
  (l2): Sequential(
    (0): SpectralNorm(
      (module): ConvTranspose2d(512, 256, kernel_size=(4, 4), stride=(2, 2), padding=(1, 1))
    )
    (1): BatchNorm2d(256, eps=1e-05, momentum=0.1, affine=True, track_running_stats=True)
    (2): ReLU()
  )
  (l3): Sequential(
    (0): SpectralNorm(
      (module): ConvTranspose2d(256, 128, kernel_size=(4, 4), stride=(2, 2), padding=(1, 1))
    )
    (1): BatchNorm2d(128, eps=1e-05, momentum=0.1, affine=True, track_running_stats=True)
    (2): ReLU()
  )
  (last): Sequential(
    (0): ConvTranspose2d(64, 3, kernel_size=(4, 4), stride=(2, 2), padding=(1, 1))
    (1): Tanh()
  )
  (attn1): Self_Attn(
    (query_conv): Conv2d(128, 16, kernel_size=(1, 1), stride=(1, 1))
    (key_conv): Conv2d(128, 16, kernel_size=(1, 1), stride=(1, 1))
    (value_conv): Conv2d(128, 128, kernel_size=(1, 1), stride=(1, 1))
    (softmax): Softmax(dim=-1)
  )
  (attn2): Self_Attn(
    (query_conv): Conv2d(64, 8, kernel_size=(1, 1), stride=(1, 1))
    (key_conv): Conv2d(64, 8, kernel_size=(1, 1), stride=(1, 1))
    (value_conv): Conv2d(64, 64, kernel_size=(1, 1), stride=(1, 1))
    (softmax): Softmax(dim=-1)
  )
)
Discriminator(
  (l4): Sequential(
    (0): SpectralNorm(
      (module): Conv2d(256, 512, kernel_size=(4, 4), stride=(2, 2), padding=(1, 1))
    )
    (1): LeakyReLU(negative_slope=0.1)
  )
  (l1): Sequential(
    (0): SpectralNorm(
      (module): Conv2d(3, 64, kernel_size=(4, 4), stride=(2, 2), padding=(1, 1))
    )
    (1): LeakyReLU(negative_slope=0.1)
  )
  (l2): Sequential(
    (0): SpectralNorm(
      (module): Conv2d(64, 128, kernel_size=(4, 4), stride=(2, 2), padding=(1, 1))
    )
    (1): LeakyReLU(negative_slope=0.1)
  )
  (l3): Sequential(
    (0): SpectralNorm(
      (module): Conv2d(128, 256, kernel_size=(4, 4), stride=(2, 2), padding=(1, 1))
    )
    (1): LeakyReLU(negative_slope=0.1)
  )
  (last): Sequential(
    (0): Conv2d(512, 1, kernel_size=(4, 4), stride=(1, 1))
  )
  (attn1): Self_Attn(
    (query_conv): Conv2d(256, 32, kernel_size=(1, 1), stride=(1, 1))
    (key_conv): Conv2d(256, 32, kernel_size=(1, 1), stride=(1, 1))
    (value_conv): Conv2d(256, 256, kernel_size=(1, 1), stride=(1, 1))
    (softmax): Softmax(dim=-1)
  )
  (attn2): Self_Attn(
    (query_conv): Conv2d(512, 64, kernel_size=(1, 1), stride=(1, 1))
    (key_conv): Conv2d(512, 64, kernel_size=(1, 1), stride=(1, 1))
    (value_conv): Conv2d(512, 512, kernel_size=(1, 1), stride=(1, 1))
    (softmax): Softmax(dim=-1)
  )
)
Elapsed [0:00:37.424296], step [10/25600], d_out_real: 0.4143,  ave_gamma_l3: 0.0001, ave_gamma_l4: 0.0007
Elapsed [0:00:55.626894], step [20/25600], d_out_real: 0.0011,  ave_gamma_l3: 0.0000, ave_gamma_l4: 0.0018
Elapsed [0:01:18.588023], step [30/25600], d_out_real: 0.0328,  ave_gamma_l3: -0.0005, ave_gamma_l4: 0.0025
…
